models/state_dict_model.pt (torch, 11890 bytes, 20 tensors)

token_embedding_table.weight f4 [10, 8]
00000000: b389 183f e117 82be bd7b b9be 032c 17bf
00000010: 74a9 8c3f af08 11bf ee14 463f fc76 383d
00000020: 5332 bd3d 7d7c 4b3f 4fef dbbf 9191 88be
00000030: 6976 7dbe c604 f83c d512 debe cf8b d23f
00000040: 44b5 903f b5d4 02be 0b3c 87be 6d61 a23f
00000050: 62c7 ebbf e1be e23e 3666 e93f e835 623f
00000060: 4769 41be 851a 9fbf a926 c1bf 1f3c e3bc
00000070: fc8f e4bc 6b88 cabe 267f be3f aeee 2240
00000080: 8837 32bf 33fc 21bf c257 ad3f d67a 68bd
00000090: 2908 2c3f 932b 3a3f 3b63 c3bf 39fd 67be
000000a0: fdbb 10bf b917 ecbe 5007 7b3f b752 97bf
000000b0: 6b8f d9bf 27b8 053f 2843 6abf 4b04 34be
000000c0: fa97 ff3f defb aabe 5433 e03f dc26 23bf
000000d0: 2b04 ecbf c001 b93f 7a44 4840 f06d 03c0
000000e0: dcee 7a3f 5638 c2bf 9a5d 073f ab74 31bf
000000f0: b002 7a3f e441 0440 4c3d fc3f 175e 8abe
00000100: 90b9 95bf c23d 8f3f 7736 83be c042 22be
00000110: 22c0 f8be dc05 f33e a48c 8cbc 877f b8bf
00000120: b8fa 2040 2b9d 88bf d213 553c b13d 0d3f
00000130: c752 94bf 82b6 b63f f760 dcbe bac4 f23e
0.5958511 -0.25408843 -0.36227217 -0.5905153 1.0989213 -0.56653875 0.77375686 0.045035347
0.09238114 0.7948683 -1.7182406 -0.26673558 -0.24752201 0.030275714 -0.43373743 1.6448916
1.1305318 -0.12776454 -0.26412997 1.2685982 -1.8420222 0.44286254 1.8234317 0.88363504
-0.18887816 -1.2429968 -1.5089923 -0.027738629 -0.027900688 -0.39557204 1.4882553 2.5458179
-0.69615984 -0.6327545 1.3542407 -0.05675777 0.6719995 0.7272274 -1.5264658 -0.2265519
-0.5653685 -0.4611185 0.98058033 -1.1822118 -1.6996893 0.5223412 -0.9150872 -0.17579763
1.9968255 -0.33395284 1.7515664 -0.6373117 -1.8438772 1.4453659 3.1291795 -2.053585
0.9802072 -1.5173442 0.528772 -0.69318646 0.9766035 2.0665216 1.9706206 -0.2702491
-1.1697254 1.1190722 -0.2562749 -0.15845776 -0.48584086 0.47465408 -0.017156906 -1.4413918
2.5153027 -1.0672964 0.013005214 0.5517226 -1.1587762 1.4274447 -0.43042728 0.47415715

position_embedding_table.weight f4 [8, 8]
00000000: 5da2 f03f d7e8 38bf b74e 423f d26a e73e
00000010: 1556 85bf fbf9 75bf 8685 5b3e 2369 85be
00000020: 28be cf3d d76b 86be e875 9f3e 6b53 1abf
00000030: 07fc bfbe fb39 d7be 6ea7 50bf 85ac d7be
00000040: 9cbd aebf 6684 69bf 3d6b 103e f8b9 0a3f
00000050: 10b1 16be 465c 17bf 3c80 9fbe 2018 88be
00000060: c03a 44be f46e ac3e f93c bf3e e12a a53f
00000070: 6c0d ba3e 78e1 e73f 20bd 04bf 7169 babf
00000080: 011f b0be 7797 583e 7066 143f ad67 c0bf
00000090: fef3 033e b8b1 bbbb e43a a4bf 3ca3 583e
000000a0: f565 9f3f 168e b63e b0fd 8f3e 9382 b7be
000000b0: 9415 b4be 2aa0 1f3c 4e39 48bf a9b1 89bf
000000c0: 2280 aebf d71a 8f3f c446 3e3f 9bdf 61bc
000000d0: 4546 873f b80c bf3f a862 cfbe c09a 81bf
000000e0: 2ef4 0a3d 1aa0 953d 1b9f 883f 1dd8 303f
000000f0: d70b ca3e b7a5 a7be 6a16 db3e 93fb 183f
1.8799549 -0.72230285 0.7590136 0.45198685 -1.0416895 -0.96084565 0.21437654 -0.26056775
0.10143691 -0.2625415 0.31144643 -0.60283536 -0.3749697 -0.42036423 -0.8150548 -0.4212381
-1.3651614 -0.9121765 0.14103408 0.54190016 -0.14715981 -0.59125173 -0.31152523 -0.26580906
-0.19163036 0.336784 0.37351206 1.2903711 0.36338365 1.8115683 -0.5185108 -1.4563428
-0.34398654 0.21151529 0.5796881 -1.5031639 0.12886044 -0.005727973 -1.2830472 0.21156019
1.245299 0.35655278 0.28123236 -0.35841808 -0.35172713 0.009742776 -0.7821244 -1.0757343
-1.3632853 1.1180066 0.7432673 -0.013786222 1.056832 1.4925756 -0.40504956 -1.0125351
0.033924274 0.073059276 1.0673555 0.6907976 0.39462158 -0.32743618 0.42790538 0.5975887

blocks.0.sa.heads.0.tril f4 [8, 8]
00000000: 0000 803f 0000 0000 0000 0000 0000 0000
00000010: 0000 0000 0000 0000 0000 0000 0000 0000
00000020: 0000 803f 0000 803f 0000 0000 0000 0000
00000030: 0000 0000 0000 0000 0000 0000 0000 0000
00000040: 0000 803f 0000 803f 0000 803f 0000 0000
00000050: 0000 0000 0000 0000 0000 0000 0000 0000
00000060: 0000 803f 0000 803f 0000 803f 0000 803f
00000070: 0000 0000 0000 0000 0000 0000 0000 0000
00000080: 0000 803f 0000 803f 0000 803f 0000 803f
00000090: 0000 803f 0000 0000 0000 0000 0000 0000
000000a0: 0000 803f 0000 803f 0000 803f 0000 803f
000000b0: 0000 803f 0000 803f 0000 0000 0000 0000
000000c0: 0000 803f 0000 803f 0000 803f 0000 803f
000000d0: 0000 803f 0000 803f 0000 803f 0000 0000
000000e0: 0000 803f 0000 803f 0000 803f 0000 803f
000000f0: 0000 803f 0000 803f 0000 803f 0000 803f
1.0 0.0 0.0 0.0 0.0 0.0 0.0 0.0
1.0 1.0 0.0 0.0 0.0 0.0 0.0 0.0
1.0 1.0 1.0 0.0 0.0 0.0 0.0 0.0
1.0 1.0 1.0 1.0 0.0 0.0 0.0 0.0
1.0 1.0 1.0 1.0 1.0 0.0 0.0 0.0
1.0 1.0 1.0 1.0 1.0 1.0 0.0 0.0
1.0 1.0 1.0 1.0 1.0 1.0 1.0 0.0
1.0 1.0 1.0 1.0 1.0 1.0 1.0 1.0

blocks.0.sa.heads.0.key.weight f4 [8, 8]
00000000: 153f 733e 7352 40be ca8e a13e 969e dbbe
00000010: ae5e f53d 2c64 5bbe cb5c 803e 7185 6b3d
00000020: 95e2 923e e36e 6abe 4a5c a9be 8610 4f3d
00000030: a7be 9a3e bb47 253e 99f7 48be 7125 933e
00000040: a722 94be c907 9e3e f9f7 9fbe fc64 b23e
00000050: 2160 f23e 625d 82be a421 393e fa73 9abb
00000060: fed2 c23d 17d8 3abc 537c 20be a550 0e3f
00000070: 0642 eabd 05b2 993e 9a35 8c3c c4dd 863e
00000080: c69e 81be ff79 ed3c 6a1f cabc bfe2 13be
00000090: 59a2 663e a1c0 c23e 38de 873e f8c8 ee3d
000000a0: f2e2 1ebe 4471 a1be d1ee 1c3e 29f1 0b3e
000000b0: 8935 b03e 2284 8dbe 18a8 633e b18a 0bbf
000000c0: 8699 abbe bd47 373d 1491 c73e 543a 1e3e
000000d0: 616e a43e a4bd c0bd eafa d4bd 8456 14bf
000000e0: 2f16 02bf 1bca 853d 32ad f3bd 6e93 cfbe
000000f0: 2514 da3e b924 243e 5399 693e d737 09bf
0.23754533 -0.18781452 0.31554252 -0.4289443 0.11980949 -0.21424931 0.25070795 0.057500307
0.28688493 -0.22893862 -0.33078223 0.050552867 0.3022358 0.16140644 -0.19625701 0.28739503
-0.28932688 0.30865315 -0.31243876 0.3484267 0.47338966 -0.2546187 0.18079239 -0.0047135325
0.095129 -0.011404059 -0.15672426 0.55591804 -0.11438374 0.3001863 0.017115403 0.2634107
-0.25316447 0.028988836 -0.024673183 -0.14441966 0.22522868 0.3803759 0.26536727 0.116594255
-0.1551626 -0.31531727 0.15325476 0.13666214 0.34415844 -0.27639872 0.22232091 -0.545085
-0.33515567 0.04474615 0.38977873 0.15451938 0.32115462 -0.09411171 -0.103994206 -0.5794451
-0.508151 0.06532689 -0.11898269 -0.40542167 0.42593494 0.16029634 0.22812395 -0.5360083

blocks.0.sa.heads.0.query.weight f4 [8, 8]
00000000: 714b 59be a1dd 2cbe f09e 883c 77e2 1ebe
00000010: 6aec cdbd 4443 d3bd e321 1c3e ad94 b0be
00000020: ba19 84be 1b78 06be dc37 74be 66b4 08be
00000030: 639c 013f 9472 37be f0cb 103e ed3e b83e
00000040: d996 6bbe 33ea 3fbd b7f3 a3be 4227 b73e
00000050: 30e8 053e ab2f d2bd cdaf 9ebe fcdb 9dbe
00000060: 9e81 86bd 03b5 9a3e 5868 fcbe 8588 4d3e
00000070: 91bf 483d d1b7 d4be f3a1 2c3e f51b 743e
00000080: 879b 03bd a7f3 f3be 6232 323e f4e4 653c
00000090: a0a9 323d 2961 053f 9cda 91be c841 8a3d
000000a0: 96a8 9e3e be04 c1be 15f6 d63e 2056 683e
000000b0: 5f5a 5ebc ef71 bb3d 229d 6d3e 3cb1 cfbe
000000c0: 4f2f 133e 198f 08be 7096 a53e 3955 b43e
000000d0: 3228 b23e a343 c1bd 7545 ec3c 164b e4bd
000000e0: cbeb fb3c 8e7c 63be 5a9f aa3e 2385 cc3e
000000f0: 5c3d b73e ec22 ac3e 6844 a23e 1590 d73c
-0.21220185 -0.1688142 0.01667735 -0.15516077 -0.10054858 -0.10315564 0.15247302 -0.3448843
-0.25800878 -0.13131754 -0.23849434 -0.13350067 0.5062925 -0.17914802 0.14140296 0.3598551
-0.23006763 -0.04685421 -0.32021877 0.3577214 0.13076854 -0.10262998 -0.309935 -0.30831897
-0.06567691 0.30216226 -0.49298358 0.2007161 0.049010817 -0.4154649 0.16858654 0.2383879
-0.032130744 -0.4764683 0.17402032 0.014031637 0.0436188 0.5210138 -0.28487098 0.06750828
0.30987996 -0.3769893 0.4198462 0.22689104 -0.013571351 0.091525905 0.23204473 -0.40564907
0.14373516 -0.13335837 0.32341337 0.3522127 0.34796292 -0.09436729 0.028841713 -0.11147134
0.030752083 -0.22215483 0.333247 0.39945325 0.35789 0.33620393 0.31692815 0.02631382

blocks.0.sa.heads.0.value.weight f4 [8, 8]
00000000: e219 02be ebc1 913e 938c 1b3e 7118 113e
00000010: 3954 6ebe 41fa 8cbe e622 2ebe 4c77 f33e
00000020: 7c6d 853d 5200 243e 8df2 c33e eb24 163e
00000030: 1b20 f13e f96a c8ba 088a 163d 46f6 f13c
00000040: cb74 9abe f882 923d db82 633d 215e 9fbe
00000050: 585c 91bc a9af 0dbb e0ca 7a3e 6803 153d
00000060: b490 eabd dc89 173e b078 0cbd ca9a e2be
00000070: d216 153d 1107 3ebc 9f85 183e b07d 53bd
00000080: 018a 9e3c 230e 8a3e 0309 433e e1ce b5bd
00000090: 71af 5f3e 9aee e6bd fe57 d83d d2d5 8a3e
000000a0: 1eb9 1b3e 8124 2bbd 96b5 573e 8288 613d
000000b0: 8d81 873e 8499 84be 70fd b43e a4d9 7bbe
000000c0: 2945 8e3e 3545 8dbe 82c7 43be c0d5 9e3e
000000d0: d41e 83be 2c1c a0be b9c6 70be 6600 d2bd
000000e0: e059 9a3e 098e ad3c 7829 163f 249e db3e
000000f0: d3d2 293c 82b6 443d 5c0d 963e e00d cabd
-0.12705186 0.2846826 0.15190344 0.1416948 -0.23274316 -0.2753468 -0.170055 0.47551954
0.06515023 0.16015747 0.3827099 0.1466252 0.47094807 -0.0015290669 0.03675273 0.029536378
-0.3016723 0.071538866 0.055544715 -0.31126502 -0.017744228 -0.0021619594 0.24491453 0.0363802
-0.11453381 0.14798683 -0.034294784 -0.4425872 0.036398716 -0.011598364 0.14894722 -0.051633537
0.019352915 0.2696391 0.19046406 -0.0887735 0.2184427 -0.112759784 0.10563658 0.27116257
0.15207335 -0.04178286 0.21065363 0.055061825 0.26466027 -0.25898373 0.35349607 -0.24594742
0.2778714 -0.27591863 -0.19119075 0.31022453 -0.25609457 -0.31271493 -0.23513307 -0.10253982
0.30146694 0.021185892 0.58657026 0.4289409 0.010365206 0.048025616 0.29307067 -0.09865928

blocks.0.sa.proj.weight f4 [8, 8]
00000000: a473 abbe 90bc ef3e 4e34 913c bd0e 8e3e
00000010: 0cbb 533e 48b7 c8bd 50b3 bc3d 8d18 9dbe
00000020: 8566 1a3e c3e2 863d 0d2a 47be 1099 483e
00000030: 7519 d8bd 38bb d03e aaab 42bd 2c82 8f3e
00000040: d196 3dbe 1a1b 7c3e 55af 093e fd1a eabd
00000050: 5c2d 883e 98d3 3cbe 2827 1a3e 34df db3d
00000060: 2c80 ce3e 26d8 d9be 77bf 9dbe 16b8 813c
00000070: 4328 4dbd 107c fbbe 3f1e c73d b1bf ebbe
00000080: 4119 a1be 5b4d 2d3e 70fa c6be 8d52 23be
00000090: f589 483d 19a5 38bd 4fa2 ff3d 5b66 0e3e
000000a0: 7408 53bc 8d7b 08be 9e52 5e3e 964f 5f3e
000000b0: 7f68 06bc e502 54bd c096 1e3e 9e70 0e3e
000000c0: 7872 8ebc 86ef d9be 1d1c 1bbd 12fb abbd
000000d0: 59d6 643d 3c46 993b 5033 37bd 45e7 ccbe
000000e0: eb98 5a3d b0f4 c63d 6685 91be b471 4a3e
000000f0: c1a2 abbe 888f 013e 2107 9dbe 8fb1 b63d
-0.33486664 0.4682355 0.017725136 0.2774562 0.20676821 -0.09800583 0.09213889 -0.30682793
0.1507817 0.0658622 -0.19449635 0.19589639 -0.105517305 0.40767837 -0.047526993 0.28029
-0.18514563 0.24619713 0.1344579 -0.11430929 0.26597106 -0.18440092 0.15054 0.10735932
0.40332162 -0.4254772 -0.3081014 0.01583485 -0.050087225 -0.4911809 0.09722566 -0.46044686
-0.3146458 0.1692404 -0.38862944 -0.1594946 0.04895969 -0.045079324 0.1248213 0.13906233
-0.012880433 -0.13328381 0.21711203 0.21807703 -0.008203625 -0.051760573 0.15487194 0.13910148
-0.017388567 -0.42565554 -0.037868608 -0.08397497 0.05586848 0.004677562 -0.04472667 -0.40020195
0.05336849 0.09714639 -0.28422087 0.19769937 -0.3352261 0.12652409 -0.306695 0.08920585

blocks.0.sa.proj.bias f4 [8]
00000000: b572 0bbe 2c18 473d 50ec 47bd c70a 5f3e
00000010: f453 50bd 6c28 cebe f4af 81bd 203b 453e
-0.13617976 0.048607036 -0.04880935 0.21781455 -0.050861314 -0.40265214 -0.063323885 0.19260836

blocks.0.ffwd.net.0.weight f4 [32, 8]
00000000: 7fda 09be fe27 aa3e e17c b23e 2b51 643e
00000010: 77ac d9bd 6cc7 64be 0b61 edbe 507c 80be
00000020: a62b e6bd 4f17 f23d 603c 0b3f 2390 8bbe
00000030: b0a2 59be d906 e43e e7ea f33e 4511 22be
00000040: 513b 8dbe 696e 563e 85a1 cb3d f9f1 523e
00000050: 50ee f3be 91fe cb3e a6c1 363e 2bd4 abbe
00000060: d8a2 1a3e 4ef8 d83e b820 55bf 1250 8c3e
00000070: 268a 883c 84ab 583e 03fa 8c3e a151 0b3f
00000080: f103 f5bd 7e6b 753d fc26 f0be 008b 9cbd
00000090: 9a80 abbe 9bbf acbe 42b0 5fbe bbb8 fc3d
000000a0: 84c3 8d3e f18a 1cbf 9d72 e23d 48dc a13d
000000b0: bda4 a33e 19ae 8f3c 250f 9b3e d351 0cbf
000000c0: 12dc 603e 73ee 023e 4de4 2abf 214f 973d
000000d0: 4625 033c c9f1 1dbe ecac 043d b8f8 80bd
000000e0: d2f5 0bbf 907e 3dbc 574f ad3e 9611 2f3e
000000f0: 77f0 373e 00fc 8f3e e065 de3e ae0a c5be
00000100: e159 98be d408 16be e4d2 493d 130e 693e
00000110: 5a49 82be 28ef 003f 6b3b a5be 5271 65be
00000120: 8f01 9d3e 194d c43d 90fa 37be d0c9 17be
00000130: 73a4 913d e5ab 03bf f8de 23be c419 963e
00000140: 9876 96be 2c07 0c3f 2849 29be 0cae a33e
00000150: fcf1 f5be da32 bdbe 9fde 0d3d 4741 06be
00000160: 5292 0abd aa7d 59be 5e83 f4bd 2b17 c13d
00000170: 3ee5 363f 106e f4be 425f 16bf ae1d 59be
00000180: 3306 6bbe 4b78 113e 1674 2fbf fb36 2b3c
00000190: df80 9abe 1767 afbd b74c 953d c801 093f
000001a0: 3766 8c3e 45eb d53c 8cd5 073f 7166 613e
000001b0: 2692 203e 3132 893e 0078 8bbd 5a66 aabe
000001c0: dec2 9abc 62eb 07bf 97a2 b63e 6f14 ca3e
000001d0: b88c 2b3e 7bcd 083e 82f6 babd b94b bf3d
000001e0: 6cfd 9a3e 576c 073e a7a0 313d 6ff8 da3c
000001f0: 8f6a 0f3f cd55 29bd dbaf c6be dafa abbe
00000200: fbcb 18bd e5bb fd3d a486 34bd ee79 99bd
00000210: 27a2 2c3f 3280 9bbe 277d d8bd 708b 9fbd
00000220: 89c3 08be 12f8 013e 53bf 2bbf c8ce b0bc
00000230: 8f91 343e 9e6b 97be 2b7f 21be 7786 763e
00000240: 3322 1f3e f729 af3e 2d1f c3be c6cc 1dbe
00000250: b99a b1bc 1436 983d f04f 03bf 4402 f3bd
00000260: 7d36 d33d 91c0 0ebf 2078 12bf a500 debe
00000270: 00d2 f1bd 44fb 9a3e 0797 973d 9df1 913e
00000280: b2e6 27be d404 c7bd fc5a f2be 314b 93be
00000290: 6cfe 973e 8e00 aabd 39d6 6ebe 1124 c53e
000002a0: e5b5 0ebe 2e3b b3bb 2503 4ebe 5312 84be
000002b0: 8260 14bf 1e9e ea3e 0f27 20be 4a5a cf3e
000002c0: e282 bcbd a9a6 ba3e e5c2 16be 8fe5 1ebe
000002d0: 9927 90be c4c2 42b9 cf91 87be e169 0f3f
000002e0: 83f6 423d 24f3 48bd 0c7f 29bf d0cb d23e
000002f0: 390d 153f 4d29 8a3d 52fd 57be 642f 35be
00000300: 948c 74be a1d3 553c 873b d4be a2aa 8ebe
00000310: fba5 ac3e 4164 ad3c 8c7b acbd f4d6 3f3e
00000320: 2525 843e 82b8 053f e56a a4be e762 873e
00000330: 7070 f0be 3af9 89be 9df3 f43e 063e d83d
00000340: 4c62 abbe f91d c2be 0157 f53e c8f5 bb3d
00000350: 9244 23be 3882 27be 39f3 ed3e 02f2 96bd
00000360: 436a 05bf 997e c33e 1910 abbe 1844 f7be
00000370: bd69 ab3d 0e79 ac3e 6ce5 953c a37f 47be
00000380: bfa8 6a3e 7ec9 6b3e bd56 f93e 9d55 1a3f
00000390: 6037 223d c3a9 c3be 8592 c8bd bca2 b2be
000003a0: 33f7 8dbd d30f 353f b227 fe3d 69f9 5c3e
000003b0: fea4 c2be c186 95be 54b8 7ebe 2590 e3bd
000003c0: 45ad 353e 1c20 613d d054 b73e 3f8b 433e
000003d0: 0d51 c2bd 9b7f 933e e578 1dbd 9817 d4be
000003e0: 79ab 41be 4e16 323f 05de 133d c041 d33e
000003f0: 0dc7 82bd 9d1a 8ebe fcc2 633d 933f abbe
-0.13462256 0.33233637 0.348609 0.22296588 -0.10628598 -0.22341698 -0.463631 -0.25094843
-0.11238794 0.11820852 0.54389 -0.27258405 -0.21253467 0.44536474 0.47640154 -0.158269
-0.27584317 0.20940556 0.09942917 0.20600118 -0.47642756 0.39842656 0.17847309 -0.3356031
0.15101182 0.4237694 -0.8325305 0.2740484 0.016667437 0.21159178 0.27534494 0.5442143
-0.119636424 0.059916966 -0.46904743 -0.076437 -0.33496553 -0.33739933 -0.21844581 0.12339922
0.2768823 -0.6114951 0.11057017 0.079033434 0.31961623 0.01753907 0.30284992 -0.54812354
0.2195895 0.12786274 -0.6675461 0.073881395 0.008004492 -0.15424265 0.032391474 -0.06297439
-0.5467197 -0.011565819 0.33849594 0.17096552 0.17962824 0.28121948 0.434371 -0.3848471
-0.29756072 -0.14651805 0.049273387 0.22759275 -0.25446588 0.50364923 -0.32271895 -0.2240651
0.30665252 0.09585018 -0.17966676 -0.14823079 0.07111444 -0.51434165 -0.16003025 0.29316533
-0.29387355 0.54698443 -0.16531813 0.31968725 -0.48036182 -0.3695286 0.034636136 -0.13110839
-0.03383095 -0.21239343 -0.11939119 0.09428247 0.71443546 -0.4774022 -0.587391 -0.21202728
-0.22951584 0.14206044 -0.6853651 0.01045012 -0.30176446 -0.08564585 0.07290023 0.5351834
0.27421734 0.026113162 0.5306022 0.22011735 0.15680751 0.26796106 -0.068099976 -0.33281213
-0.018891748 -0.5309354 0.3567092 0.39468715 0.16752899 0.13359635 -0.09129049 0.09340615
0.3027147 0.13224922 0.0433661 0.02672979 0.5602197 -0.04134159 -0.38806042 -0.33589822
-0.037303906 0.12389354 -0.044073716 -0.07493959 0.67434925 -0.30371243 -0.10570746 -0.077902675
-0.1335584 0.12692288 -0.6708881 -0.021582976 0.17633651 -0.29574293 -0.15771167 0.24074732
0.1554039 0.34211704 -0.38109723 -0.15410146 -0.021680223 0.074321896 -0.5129385 -0.118656665
0.10313127 -0.55762583 -0.57214546 -0.43359867 -0.118076324 0.30269825 0.07401853 0.2850465
-0.16396597 -0.09717718 -0.4733504 -0.28768304 0.29686296 -0.08300887 -0.23323907 0.3850408
-0.13936575 -0.0054697013 -0.20118387 -0.2579523 -0.5795976 0.4582376 -0.156399 0.40498573
-0.092046514 0.36455277 -0.14722784 -0.15517257 -0.2815521 -0.00018573838 -0.2647843 0.56020933
0.047598373 -0.049060002 -0.66209483 0.41171122 0.582233 0.06746159 -0.21092728 -0.1769386
-0.23881751 0.013050945 -0.41451666 -0.27864558 0.33720383 0.021165969 -0.08422002 0.18734342
0.2580959 0.5223466 -0.32112804 0.26442644 -0.46960783 -0.26947957 0.47842112 0.10558705
-0.33473432 -0.37913492 0.4791794 0.091777384 -0.15944126 -0.16358268 0.46474627 -0.07370378
-0.5211527 0.38182524 -0.3341072 -0.4829414 0.08369777 0.33686107 0.018297873 -0.19482283
0.22915934 0.23026082 0.4869899 0.60286885 0.03960359 -0.38215455 -0.097935714 -0.3488978
-0.06931915 0.7072727 0.12409915 0.21579517 -0.38016504 -0.29204372 -0.24875003 -0.11111478
0.17741878 0.054962263 0.35806894 0.19096087 -0.094881155 0.28808293 -0.038445372 -0.4142425
-0.18913068 0.69565284 0.036100406 0.412611 -0.06385622 -0.2775468 0.055605873 -0.3344694

blocks.0.ffwd.net.0.bias f4 [32]
00000000: de7a 53be 5082 c1bd ce6d b53e 57a3 d33e
00000010: 1eed 633e 3c2f 4e3e c972 3e3e 308c 40be
00000020: 64cc bc3e fe1c b13e 6e31 043d 0bd8 a73c
00000030: e7c7 803d be1f 5e3e 4bba e03d 8874 b73e
00000040: 40fb 593d 0b60 993e eff1 5fbe 21bb 3c3e
00000050: 849b 79bd 3a42 713e 934b 093f 7fd9 ed3d
00000060: d565 7fbd 8aed 2bbe ba16 3e3c 6afc 803d
00000070: dbd5 403d a2d7 323e daae 943e b6e3 f3bd
-0.20652339 -0.09448683 0.35435337 0.41335556 0.22258422 0.20135206 0.18598475 -0.18803477
0.36874688 0.34592432 0.032273702 0.02048876 0.06288128 0.21691796 0.109730326 0.35831094
0.053218126 0.29956087 -0.21869634 0.18430759 -0.060939327 0.2356042 0.5363094 0.1161375
-0.062352974 -0.16789833 0.011602098 0.06298144 0.04707895 0.1746507 0.2903965 -0.11908667

blocks.0.ffwd.net.2.weight f4 [8, 32]
00000000: 262d 09bf c8e0 97bd 6e38 143e db3d ccbe
00000010: b8ad 90be d034 5dbe a7c2 2fbe 979a ed3e
00000020: d660 903e d1b2 2f3e 38b6 90be d6c9 7b3e
00000030: 35ef e4be b078 6cbe 586b 813e 0e60 9d3d
00000040: 8a0e 9a3e 6ff7 183e 509e 93be 50c6 95be
00000050: d0cd 5cbd f120 443e f18e f4bd 5a03 8e3e
00000060: 8557 7a3e f803 4fbe 2a69 cc3d 3db1 bc3e
00000070: 181a e4be d09a 8dbe 5f1d c6bd 70e1 efbd
00000080: 131b e53d ed3b 783e 3220 413e 27e9 04bf
00000090: 3f89 96be 4735 4e3d 30b7 fabd 7710 35bd
000000a0: 9da4 32be 160d 153e ae49 39bb de49 59bd
000000b0: 8d51 46be c09b 083d 6dee 613e a89d 88be
000000c0: bd6e cabd 2dee 0fbe 0eca 81be 0f16 38be
000000d0: 9bad e03d c199 81be 1e99 963c a70a 1d3e
000000e0: 65ff 8bbc f3f6 19be bb86 793e 7286 e0bd
000000f0: 7f9f b23e 1c6c 233e eea2 df3d 66a8 4d3e
00000100: 8717 383e 21e3 273d 8bcb 43be 7801 3d3d
00000110: 0a85 09be 5710 60be 6e50 a93d f265 4c3e
00000120: 202b d43d 8c9e 1cbe 8a28 d0be 24ea 233e
00000130: 6af8 a33c 3cb1 723e 7943 323e 72c9 2a3d
00000140: a389 3cbd 1a2d 9f3d 0678 a7be 01cf 77be
00000150: 8d5f 1f3c 81d9 7dbe 5954 33be b60a d5bd
00000160: c254 8abe 2ce0 97bc 11a5 cc3c d5c5 f5bd
00000170: e3a4 8a3b 2a56 cabd ea41 d13c a2af a7be
00000180: 1af7 78be c150 003e cf91 aabd 08db b33e
00000190: 7c4f 813e 4820 b7be 55b0 d23e 48d3 23be
000001a0: 55a3 8a3d f7de 4b3e b2d5 773e fb3f a0bd
000001b0: e1c8 b73e 52a6 55bd c728 8fbe 6b5c 5b3e
000001c0: bb5b 923d f6e1 833e 25c6 253e 1a54 75bc
000001d0: 7b8e 2f3e 0d0a 8d3e 6d78 4a3e eb08 253e
000001e0: 21ea 553d 2651 cd3e 6895 0dbd bcee 943e
000001f0: 291f 9ebe 76e1 7e3d e9a7 c9bd 401f 4ebe
00000200: 7125 063e cd6a eebe af56 22be 0570 88be
00000210: 4a68 3fbe b53c cc3e 4487 bcbe 0ef4 8fbd
00000220: 63d2 693c 3fdc b83d 2364 b93e 65ad 153e
00000230: 1b5e ddbe 7b07 c53d 402a 71b9 87ca 873e
00000240: 7d36 923e 3f8a dbbe 98f5 aabc 7a48 ae3d
00000250: 3ef2 d4bc 6e23 84be 95d2 ddbd 7251 d8bd
00000260: 8a61 a3bd e8f7 bf3e 7fea 0bbe 537c 0f3e
00000270: 3dda a63e 1c1c cfbd 6c30 fcbd 4d73 8b3e
00000280: b9e3 cd3e a8a4 a63c 07db b5be d3af 383e
00000290: 0505 833e 3dba 223e 8d9a 04be c7d1 70bd
000002a0: ae4b 90be 79a5 c8be 92a6 833e 2798 edbe
000002b0: 0e97 e33d 33a4 c3bd a581 673e a7cb 82be
000002c0: ff17 82be 470b afbd fdba 013e f395 1c3f
000002d0: 1fea 96be 3e2d 9fbe 2d3d a73d f7e5 aabe
000002e0: 7281 55be 1aa7 943c 5fe5 503e 384e 75bd
000002f0: 0029 623d 6c23 ce3e a74e 333d 7be2 873e
00000300: 6239 65be 9d00 883e 5df8 3f3e 2301 d53e
00000310: 191f 24bc 2bd6 283e 7a28 813e 4013 843d
00000320: 44d8 05bd 0f95 003d 546f 923d dc8b 353e
00000330: c0e8 283e c370 69be 7d58 9fbe 7757 e3bc
00000340: 0068 983d 1968 903e 9798 113e 672a 8fbd
00000350: a65c c23d 968c 783e f5c1 3b3e db61 b33e
00000360: 8394 8d3e 57cb 393e 1cb9 69be 4136 08be
00000370: ad23 9fbe 046d 883a fae3 e7bd 1bca 3dbd
00000380: a18c 9fbb 413f a5bd 5b71 163d 6f7c 8abe
00000390: a544 0fbe 7e83 a4bd e6b1 0fbc 28a4 183e
000003a0: adca 603e 2abc 4a3d 066a 8abe 6d28 36be
000003b0: b019 50be ebe6 723e cc4a 703e 0732 923e
000003c0: 0a16 26bd 61f8 29be 9feb 5ebe 7b2b f0bd
000003d0: 8943 90bd f1a9 8cbd 9a2e 56be 2511 b0bb
000003e0: 5a9f f1bd 54f3 a8bd 1fee 43be 75df b3bc
000003f0: efec c93b e356 003e b34d a93e 5b84 013d
-0.53584516 -0.074159205 0.14474651 -0.39890942 -0.28257537 -0.21602178 -0.17164098 0.46407005
0.2819888 0.17158057 -0.28264022 0.24588713 -0.4471375 -0.23092914 0.2527721 0.076843366
0.30089217 0.14938138 -0.2883172 -0.29252863 -0.053907216 0.19153191 -0.119413264 0.27736932
0.24447449 -0.20216358 0.09980996 0.36853972 -0.44551158 -0.27657175 -0.09673571 -0.11712921
0.111868046 0.2424161 0.18859938 -0.5191826 -0.29401585 0.050343778 -0.122419715 -0.044205155
-0.17445607 0.14555773 -0.0028272676 -0.05304896 -0.19367047 0.03335166 0.22063608 -0.26682782
-0.09884403 -0.140557 -0.25349468 -0.17977165 0.109706126 -0.25312617 0.018383559 0.15336095
-0.017089555 -0.1503561 0.24367802 -0.109631434 0.3488731 0.15959209 0.10919748 0.2008377
0.17977725 0.04098809 -0.19120614 0.04614398 -0.13429657 -0.21881233 0.08267294 0.19960764
0.10359788 -0.15294856 -0.4065593 0.16007286 0.020015914 0.23700422 0.17408551 0.04169602
-0.046029698 0.07772274 -0.32708758 -0.2420006 0.009727371 -0.24790002 -0.17512645 -0.104024336
-0.2701779 -0.01853951 0.024981054 -0.12000624 0.004231082 -0.09879716 0.025544126 -0.32751185
-0.24313012 0.12530805 -0.08328592 0.35128045 0.25255954 -0.35766816 0.41150156 -0.15998566
0.06769434 0.19909273 0.24202612 -0.07824703 0.35895446 -0.05216057 -0.27960798 0.21421973
0.071464024 0.25758332 0.16188867 -0.014973665 0.17144196 0.2754673 0.19772501 0.16116683
0.052225236 0.40100974 -0.034566313 0.2908839 -0.30883148 0.062226735 -0.098464794 -0.20129108
0.1310022 -0.46565858 -0.1585338 -0.26647964 -0.18692127 0.39890066 -0.3682195 -0.070289716
0.0142713515 0.090263836 0.3620921 0.14616926 -0.4323586 0.096205674 -0.0002299929 0.26521704
0.28557196 -0.4287891 -0.020869061 0.085099176 -0.025994416 -0.2580828 -0.10831181 -0.105624095
-0.079775885 0.37493825 -0.13663672 0.1401227 0.32588378 -0.10112783 -0.12313923 0.27236405
0.402128 0.020342186 -0.35518667 0.18035822 0.25589767 0.15891357 -0.12949581 -0.05879381
-0.2818274 -0.39188746 0.2571302 -0.46405146 0.11112796 -0.09552803 0.22608049 -0.25546
-0.25408933 -0.08547073 0.12668987 0.61166304 -0.29475495 -0.31089205 0.08165965 -0.33378574
-0.2085016 0.018146086 0.20399998 -0.05988905 0.055214882 0.402614 0.04377618 0.26539978
-0.22385171 0.26562968 0.18747087 0.4160243 -0.01001718 0.16487949 0.25226194 0.06448984
-0.03267695 0.031392153 0.071501404 0.17729133 0.16495037 -0.22796921 -0.311222 -0.027751667
0.074417114 0.2820442 0.14218365 -0.069905095 0.094903275 0.2427238 0.18335707 0.35035595
0.27652368 0.18143974 -0.2282452 -0.13301946 -0.31081906 0.0010408466 -0.1132278 -0.04633532
-0.004869059 -0.08068705 0.036729198 -0.2704806 -0.1399103 -0.08032893 -0.008770442 0.1490637
0.21952315 0.049495853 -0.27034014 -0.17788859 -0.20322299 0.237209 0.23466033 0.28553793
-0.04054836 -0.16598655 -0.2176957 -0.11727043 -0.07044131 -0.06868351 -0.20916215 -0.0053731375
-0.11797972 -0.08249536 -0.19133805 -0.021957139 0.006162278 0.12533145 0.33067092 0.031620365

blocks.0.ffwd.net.2.bias f4 [8]
00000000: e47a 82bd b3d5 ed3c f232 37be 166e 203e
00000010: c9cd c33d 4470 33be e498 18be dd04 cfbd
-0.06371096 0.029032564 -0.17890528 0.15666994 0.09560735 -0.17523295 -0.14902073 -0.101083495

blocks.0.ln1.weight f4 [8]
00000000: 8411 5d3f cff4 803f 15a9 a23f 6bcc 923f
00000010: d859 923f c826 6e3f 8a9c 853f f1f0 9b3f
0.8635485 1.007471 1.270785 1.1468633 1.1433668 0.93027925 1.0438397 1.2182904

blocks.0.ln1.bias f4 [8]
00000000: 3a23 f6bd 5aba 4abe bbf4 78be 640c 97bd
00000010: f1dc 57be 506c f83d ef4e 60be f641 503e
-0.12018438 -0.1979765 -0.24312107 -0.0737541 -0.21080376 0.12130034 -0.21905111 0.20337662

blocks.0.ln2.weight f4 [8]
00000000: 7fdd 893f 9f5d bf3f d7c6 ae3f 95e2 983f
00000010: ab36 aa3f e885 a03f d44d a43f b5b8 a43f
1.077072 1.4950446 1.3654431 1.1944147 1.3297933 1.2540865 1.2836251 1.2868868

blocks.0.ln2.bias f4 [8]
00000000: b2d6 91bd ddca 2cbe 8e08 f6bc 282b 293e
00000010: f4dd 9a3d 4982 57bc 3762 85bd 4045 063e
-0.07121028 -0.16874261 -0.030033376 0.16520369 0.075618654 -0.013153621 -0.065128736 0.13112354

ln_f.weight f4 [8]
00000000: 6216 c53f ea86 c43f f691 d63f 0e05 c43f
00000010: 9d71 dc3f 4854 dc3f 8f03 de3f e6a2 a03f
1.5397456 1.5353673 1.6763294 1.5314043 1.7222172 1.7213221 1.7344836 1.2549713

ln_f.bias f4 [8]
00000000: 15ef 3ebe e9c7 63be bd1d 56be 5e03 203e
00000010: c1f8 c63b 8578 51be ac86 dabd fc15 97bd
-0.1864589 -0.22244228 -0.20909782 0.15626284 0.0060721342 -0.20456131 -0.10670218 -0.0737724

lm_head.weight f4 [10, 8]
00000000: c69e e0be 2f52 febe 87a9 11bf 0442 433f
00000010: d2dd 14bf be7f b63d 2497 273f 337a 51be
00000020: b16f 81bd ae19 a73d ffe6 473f 1905 9cbe
00000030: 293a 263f 82d8 e9bd 0fe8 0dbf 0294 1d3f
00000040: bf91 f6bd 14bd 1b3f 4f80 0f3f c2b3 62be
00000050: 5383 6cbf d75e 593e 0ecf bebe 6fb8 333f
00000060: 5dce ed3e a7ce 173f 2a09 c63e e02e 22bf
00000070: 49c8 49bf 11f3 8d3e b76e 553f ad40 03bf
00000080: ab2b 5b3e 78a3 febd a247 a53c f6b5 39bf
00000090: f187 f83e d8f2 763f 57b5 173f a543 b03c
000000a0: 37ae 50bf 44dd 453f ff65 28bf bf12 4ebd
000000b0: a907 0d3e 0a77 ea3e 5be3 18be d1ca febd
000000c0: dddf 543f 62b7 06bf 8fb0 e3be 274b 7b3e
000000d0: 9a08 09bf 8a06 953e aa9f 03bf ffb3 0e3f
000000e0: ddaf ad3e 0223 98be 3df9 24be 9f60 8d3c
000000f0: c87e f33e b3a8 1ebf 15a1 bd3e 4599 aebe
00000100: ad95 b33d f671 cfbe 4bc3 15bf 2166 a7be
00000110: 0d6c 703e a9e7 45bf dba5 2f3e b651 b4bd
00000120: 07c9 b63e 17d3 87bd 4f1e 78be cd7d bdbd
00000130: f39c 063f 6de0 0fbf 4fa2 d63e 96b7 00be
-0.43871135 -0.49672076 -0.56899303 0.76272607 -0.5815097 0.08911084 0.65465 -0.20456772
-0.063201316 0.08159195 0.7808685 -0.3047264 0.64932495 -0.11418249 -0.5543222 0.61553967
-0.120395176 0.60835385 0.5605516 -0.22138885 -0.92387885 0.21227585 -0.37267345 0.702033
0.46446505 0.592997 0.38678867 -0.63352776 -0.78821236 0.27724507 0.8337206 -0.5127056
0.21403377 -0.12433523 0.020175759 -0.72543275 0.48541215 0.964643 0.5926108 0.02151663
-0.8151583 0.7729075 -0.65780634 -0.050310846 0.13772453 0.45793945 -0.14930479 -0.12441028
0.8315409 -0.5262357 -0.4447064 0.24540387 -0.5352875 0.2910655 -0.51415503 0.557434
0.33923236 -0.2971421 -0.16110702 0.017257987 0.47557664 -0.61976165 0.37036958 -0.3410131
0.08768783 -0.40516633 -0.5850112 -0.32695106 0.23478718 -0.7730661 0.17153113 -0.088046476
0.35700247 -0.06632059 -0.24230312 -0.0925251 0.52583236 -0.5620182 0.41920707 -0.12570032

lm_head.bias f4 [10]
00000000: 49bb f33e 573d a4bd 003b 9ebd efcd 3ebe
00000010: 4534 973e 4a7e 0b3c 3d47 a4be f640 39bc
00000020: 9990 503c 4e89 43be
0.47603825 -0.08019512 -0.07726097 -0.18633245 0.29532066 0.008513996 -0.320856 -0.011306992
0.012729787 -0.19095346
