models/state_dict_model.pt (torch, 11698 bytes, 20 tensors)

token_embedding_table.weight f4 [10, 8]
000000 18 f4 1c 3f 9e 71 9e be 69 04 b8 be 0c 41 27 bf
       0.6130996 -0.30946058 -0.35940865 -0.6533363
000010 da 98 8c 3f d4 3f 13 bf 65 35 42 3f 11 17 c3 3d
       1.0984147 -0.5751927 0.75862724 0.09525884
000020 79 87 6a 3d e5 6a 41 3f cc 1e dd bf d6 4e 8a be
       0.057258103 0.75553733 -1.7275023 -0.27013272
000030 27 0f 7b be 86 ea 00 3d bf f9 d2 be 3d ae db 3f
       -0.24517499 0.03147366 -0.41206166 1.7162548
000040 0b 81 85 3f c2 6d 55 be 7a 1f 71 be af 0c a0 3f
       1.0430006 -0.2084265 -0.23547164 1.2503871
000050 9d 03 e2 bf ae 7d eb 3e d4 20 ef 3f af b5 53 3f
       -1.7657353 0.45994323 1.8681893 0.826991
000060 e5 ef 62 be 80 5c a8 bf fe 73 bc bf 71 42 66 bd
       -0.22161825 -1.3153229 -1.4722898 -0.056215707
000070 52 62 ab 3c 43 84 dd be ed 3f d0 3f 14 8c 20 40
       0.020920906 -0.4326497 1.6269509 2.5085497
000080 e4 da 42 bf 91 f3 2f bf 00 98 b4 3f 1f 78 fc bc
       -0.7611525 -0.6873103 1.4108887 -0.030818997
000090 7e 5b 27 3f 50 61 48 3f 80 e8 c8 bf c3 65 9f be
       0.6537398 0.7827349 -1.5695953 -0.31132326
0000a0 90 47 13 bf 52 83 d3 be 0d 5c 73 3f d9 07 96 bf
       -0.5753107 -0.41311127 0.95062333 -1.1721145
0000b0 80 38 d7 bf 9c 33 ca 3e 4c 24 6a bf ee 93 30 be
       -1.6814117 0.394925 -0.91461635 -0.1724393
0000c0 c0 2e f9 3f 05 2b bd be be a0 df 3f 37 0d 21 bf
       1.9467392 -0.36946884 1.747093 -0.6291079
0000d0 bb 34 e7 bf 7c 2a ba 3f a2 b3 43 40 71 dd fc bf
       -1.8062967 1.4544215 3.057839 -1.9755079
0000e0 9e 8e 73 3f 63 de c6 bf 47 1e 1c 3f 7a 38 37 bf
       0.9513949 -1.5536617 0.609837 -0.7157055
0000f0 74 d7 75 3f a2 66 07 40 11 16 01 40 3b f6 c8 be
       0.9603188 2.1156392 2.0169718 -0.3925036
000100 60 96 8f bf 2f f7 8b 3f 38 83 a1 be 65 9d 16 be
       -1.1217766 1.093481 -0.31545424 -0.14708479
000110 1f 03 d9 be 5f f4 f4 3e 7f 4a 70 bd 41 eb b5 bf
       -0.42385194 0.4784269 -0.058664795 -1.4212419
000120 67 88 1f 40 b5 39 87 bf b6 31 51 bd 61 32 17 3f
       2.4927003 -1.0564486 -0.0510728 0.5906125
000130 a3 09 8b bf 54 5a b5 3f a7 70 cb be 7c 20 e5 3e
       -1.0862316 1.4168191 -0.39734384 0.44751346

position_embedding_table.weight f4 [8, 8]
000000 05 dd f0 3f ea 0f 39 bf f5 71 40 3f 03 ab fc 3e
       1.881745 -0.7228991 0.75173885 0.49349222
000010 d5 56 86 bf a4 af 70 bf 41 ff 62 3e 46 ab 8f be
       -1.0495249 -0.94018006 0.22167684 -0.2806036
000020 92 33 02 3e c5 36 5d be c5 18 8a 3e 8a 50 20 bf
       0.12714985 -0.21602924 0.26972023 -0.6262289
000030 79 3e b8 be 31 f8 bf be 23 9d 48 bf 6a 3e e2 be
       -0.35985163 -0.37494043 -0.7836477 -0.44188243
000040 f2 3c ab bf ed d1 6f bf 0e c7 24 3e 66 d7 0d 3f
       -1.3377974 -0.93679696 0.16091558 0.55406797
000050 9c 20 06 be d7 bc 28 bf e4 20 a8 be 0d b8 6f be
       -0.13098377 -0.65913147 -0.32837594 -0.23410054
000060 38 cc 4e be 0b 97 b1 3e 8d 5d ec 3e bb 6b 9d 3f
       -0.20195091 0.3468555 0.46165124 1.2298502
000070 30 34 ad 3e d4 b2 e7 3f f1 5c f3 be 3e ce bb bf
       0.33828878 1.8101449 -0.47531846 -1.4672315
000080 4f 0a 99 be 4f d5 68 3e c6 83 0e 3f 1e e1 c3 bf
       -0.29890677 0.22737621 0.5566982 -1.5303075
000090 36 ac 48 3e cd 14 19 3c 72 52 a6 bf a5 b1 63 3e
       0.19596943 0.009343338 -1.299391 0.22235735
0000a0 f3 d7 9f 3f 4e 89 ae 3e a2 ce 7c 3e 7e 89 b9 be
       1.2487777 0.3408913 0.24688199 -0.3623771
0000b0 37 45 b3 be cb 52 a0 3c 30 2b 41 bf ac 5b 86 bf
       -0.35013744 0.019570729 -0.75456524 -1.0496726
0000c0 c3 3e b3 bf 1c a5 93 3f 0b 4f 42 3f 5b cc 2e bc
       -1.4003528 1.1534762 0.7590186 -0.010668839
0000d0 36 db 8a 3f eb c4 c3 3f 5d c7 b0 be cf 16 84 bf
       1.0848148 1.529447 -0.34527102 -1.0319461
0000e0 61 50 08 3d 6f 91 98 3d 47 a1 87 3f d0 01 2b 3f
       0.03327978 0.07449614 1.0596093 0.6679964
0000f0 91 f0 d6 3e 8a c9 ad be 84 47 d2 3e bf e5 25 3f
       0.41980413 -0.33942825 0.41070187 0.6480369

blocks.0.sa.heads.0.tril f4 [8, 8]
000000 00 00 80 3f 00 00 00 00 00 00 00 00 00 00 00 00
       1.0 0.0 0.0 0.0
000010 00 00 00 00 00 00 00 00 00 00 00 00 00 00 00 00
       0.0 0.0 0.0 0.0
000020 00 00 80 3f 00 00 80 3f 00 00 00 00 00 00 00 00
       1.0 1.0 0.0 0.0
000030 00 00 00 00 00 00 00 00 00 00 00 00 00 00 00 00
       0.0 0.0 0.0 0.0
000040 00 00 80 3f 00 00 80 3f 00 00 80 3f 00 00 00 00
       1.0 1.0 1.0 0.0
000050 00 00 00 00 00 00 00 00 00 00 00 00 00 00 00 00
       0.0 0.0 0.0 0.0
000060 00 00 80 3f 00 00 80 3f 00 00 80 3f 00 00 80 3f
       1.0 1.0 1.0 1.0
000070 00 00 00 00 00 00 00 00 00 00 00 00 00 00 00 00
       0.0 0.0 0.0 0.0
000080 00 00 80 3f 00 00 80 3f 00 00 80 3f 00 00 80 3f
       1.0 1.0 1.0 1.0
000090 00 00 80 3f 00 00 00 00 00 00 00 00 00 00 00 00
       1.0 0.0 0.0 0.0
0000a0 00 00 80 3f 00 00 80 3f 00 00 80 3f 00 00 80 3f
       1.0 1.0 1.0 1.0
0000b0 00 00 80 3f 00 00 80 3f 00 00 00 00 00 00 00 00
       1.0 1.0 0.0 0.0
0000c0 00 00 80 3f 00 00 80 3f 00 00 80 3f 00 00 80 3f
       1.0 1.0 1.0 1.0
0000d0 00 00 80 3f 00 00 80 3f 00 00 80 3f 00 00 00 00
       1.0 1.0 1.0 0.0
0000e0 00 00 80 3f 00 00 80 3f 00 00 80 3f 00 00 80 3f
       1.0 1.0 1.0 1.0
0000f0 00 00 80 3f 00 00 80 3f 00 00 80 3f 00 00 80 3f
       1.0 1.0 1.0 1.0

blocks.0.sa.heads.0.key.weight f4 [8, 8]
000000 52 94 6b 3e 53 92 00 be 2e cd ab 3e f1 a3 f2 be
       0.23005798 -0.12555818 0.33554977 -0.47390702
000010 ae 6a f2 3d 3b b9 49 be a9 d6 93 3e 94 9e 9d bb
       0.11836754 -0.19699566 0.2887471 -0.0048101638
000020 81 14 96 3e c6 e5 84 be de 05 a1 be 7a f5 f9 3d
       0.29312518 -0.25956553 -0.3144979 0.12205024
000030 9a 1f 90 3e 0b 08 40 3d 7f 71 f8 bd 50 61 92 3e
       0.2814911 0.04688267 -0.12131023 0.2858987
000040 94 89 82 be b0 4a 8c 3e 57 32 5e be 22 f1 a5 3e
       -0.2549559 0.27400732 -0.2169889 0.32410532
000050 ad df e5 3e a6 a0 84 be 9a df 3f 3e 59 2a 75 bc
       0.44897214 -0.25903815 0.18737641 -0.01496371
000060 d0 96 af 3d 3a 0c 38 bd bf 2d 1f be 20 26 0f 3f
       0.08573687 -0.044933535 -0.15544794 0.5591755
000070 53 07 e7 bd 27 d7 8a 3e d3 b7 68 3d a1 b1 74 3e
       -0.11280694 0.27117273 0.056815933 0.23895885
000080 57 63 44 be 44 63 d1 3d 24 d9 55 be ba 0a c6 bd
       -0.1917852 0.102240115 -0.20883614 -0.09670015
000090 ee f2 be 3d b4 67 d4 3e db c9 0a 3e 37 3e 8b 3e
       0.09323679 0.4148537 0.13553564 0.27195904
0000a0 a3 f5 2f be bf 41 8f be 25 93 2d 3e 66 ba 07 3e
       -0.17183547 -0.27979848 0.16950662 0.13254699
0000b0 b6 de b9 3e e2 1d 9a be 5f bf 8b 3e 00 44 08 bf
       0.36302727 -0.30100924 0.27294442 -0.5322876
0000c0 fc 4e a2 be 7c 8b ec 3c 9f f2 a6 3e 1a 1a 33 3e
       -0.31700885 0.028875105 0.3260698 0.17490426
0000d0 95 41 97 3e fc f5 59 be cf bc 65 bd 84 de 0a bf
       0.29542223 -0.21285242 -0.056088265 -0.5424578
0000e0 a0 76 f8 be 27 2d af 3d 80 8e 43 be f8 f1 cc be
       -0.48528004 0.08553534 -0.19097328 -0.40028358
0000f0 bc 67 ea 3e a4 d8 0c 3d 7d c3 57 3e 42 65 02 bf
       0.45782268 0.034386292 0.21070667 -0.5093576

blocks.0.sa.heads.0.query.weight f4 [8, 8]
000000 81 f9 44 be e6 0b 33 be dd 46 11 bd 32 2e 24 be
       -0.19235803 -0.17485008 -0.03546797 -0.16033247
000010 e5 c9 a8 bd 17 da c3 bd 50 a9 4e 3e 83 3b b6 be
       -0.08241633 -0.09563082 0.20181775 -0.3559228
000020 3e 6b 54 be 53 78 2c be f8 97 3a be 6b e9 e6 bb
       -0.20744035 -0.16842775 -0.18222034 -0.0070468686
000030 8b 17 e4 3e 51 5b 44 be c8 52 0f 3e d2 bd b8 3e
       0.44549212 -0.1917546 0.13996422 0.3608232
000040 10 5d 68 be ef e5 9d bd ee 4c 25 be f4 e0 b6 3e
       -0.2269175 -0.07709872 -0.16142628 0.357185
000050 6c cc 12 3e 00 3e 00 be 5b 75 68 be 8c 16 9d be
       0.14335793 -0.12523651 -0.22701018 -0.30681264
000060 e5 ae 80 bd 93 46 7e 3e 16 35 de be 10 82 5e 3e
       -0.062833585 0.2483161 -0.43399876 0.21729302
000070 6b 50 81 3d 60 8d ed be c9 7e ce 3d a4 a7 87 3e
       0.06314167 -0.46396923 0.10082776 0.26495087
000080 28 10 93 bc d3 6a 4f be c9 fc d7 bd b3 9d 5f 3c
       -0.01795204 -0.20255594 -0.10546262 0.013648438
000090 96 5c ba bd bf dd 07 3f c0 9e 8b be d7 b7 86 3e
       -0.090996906 0.5307273 -0.27269554 0.26312134
0000a0 53 d2 ae 3e 40 09 d7 be 86 da d0 3e fe f0 3d 3e
       0.3414484 -0.41999245 0.4079172 0.18548962
0000b0 d6 78 88 3c e3 77 aa 3d 32 cc 92 3e 69 72 cc be
       0.016659182 0.08323648 0.28671414 -0.39931038
0000c0 fc 11 0f 3e 65 79 0f be 04 6d a1 3e 66 b6 aa 3e
       0.13971704 -0.14011152 0.31528485 0.33342284
0000d0 eb 26 ab 3e 8e 2f ab bd fa 93 83 3d c4 6e 0b be
       0.3342813 -0.0835868 0.06424709 -0.13616472
0000e0 70 51 73 3d c1 f3 43 be 02 7e 91 3e 4f 19 bc 3e
       0.059403837 -0.19135953 0.2841645 0.3673806
0000f0 45 dc bf 3e 42 7b b9 3e 04 2b b9 3e 17 af 98 3b
       0.3747274 0.3622685 0.3616563 0.004659544

blocks.0.sa.heads.0.value.weight f4 [8, 8]
000000 59 38 05 be 5b 54 99 3e 47 da 52 3e dd 88 2e 3e
       -0.13009776 0.2994717 0.20591079 0.17044397
000010 cd 8a 66 be e5 07 7b be 86 3c 3a be e7 97 e9 3e
       -0.22513886 -0.2451473 -0.1818715 0.45623705
000020 2e 72 6b 3d d5 e1 1e 3e 50 a0 b6 3e d1 11 04 3e
       0.057481937 0.15515836 0.35669184 0.12897421
000030 45 26 ec 3e d2 bc 03 bd bb 96 fa 3c f0 f8 32 3d
       0.46122947 -0.032162495 0.030589452 0.043694437
000040 e9 a6 93 be 97 69 65 3d 68 4a ff 3c 5c 6b a2 be
       -0.2883828 0.0560089 0.03116341 -0.31722534
000050 5f 70 f4 bc 35 d3 2f bd df 1b 49 3e ca 89 9a 3d
       -0.029838739 -0.042926032 0.19639538 0.075458124
000060 1d 42 ab bd 48 94 2e 3e 4b 47 38 bd 92 d9 e5 be
       -0.083622195 0.17048752 -0.044989865 -0.44892555
000070 17 a2 eb 3c 01 ef 3e bc 81 b8 10 3e 66 5c 2b bd
       0.028763814 -0.011653663 0.14132883 -0.041836165
000080 5f c2 30 bc 71 c1 90 3e 65 83 5a 3e e0 6d 95 bd
       -0.010788529 0.28272584 0.21339186 -0.072963476
000090 e4 51 4e 3e 25 4f 0e be 6a 8e 2b 3e 81 84 69 3e
       0.20148426 -0.13897379 0.16753545 0.22804452
0000a0 2e dd 16 3e 00 4f 16 bd b0 a2 42 3e 05 e0 6d 3d
       0.14732811 -0.036696434 0.19007373 0.05807497
0000b0 be b9 88 3e 89 36 8e be 5b d7 c2 3e ac 45 81 be
       0.2670421 -0.27775982 0.38054928 -0.25248468
0000c0 7b f6 83 3e d5 74 92 be 1a a9 00 be c4 f6 ad 3e
       0.25773987 -0.2860476 -0.12564507 0.3397733
0000d0 c9 bd 8d be c0 26 b5 be 64 9d 4a be 05 60 08 be
       -0.27683857 -0.35381126 -0.19786602 -0.13317879
0000e0 76 93 91 3e 07 6e 8f 3d e2 0e 0c 3f 93 f5 d3 3e
       0.28432816 0.07003408 0.5471021 0.41398296
0000f0 bb 2b e6 3c 69 df 44 bd 66 c2 82 3e c0 a8 04 be
       0.028097024 -0.048064623 0.2553894 -0.12954998

blocks.0.sa.proj.weight f4 [8, 8]
000000 8b df ad be 4d 58 e0 3e 68 b6 09 3d cf 00 6a 3e
       -0.33959612 0.43817368 0.03362122 0.22851871
000010 32 2a 36 3e 56 23 23 be 21 de 96 3d e9 50 98 be
       0.17789534 -0.15931448 0.073665865 -0.2974923
000020 33 93 3e 3e a5 fa 36 3d d0 81 48 be c3 cb 6d 3e
       0.1861084 0.044672627 -0.1958077 0.2322226
000030 68 f7 a2 bd 07 40 dd 3e 50 e1 fa bc f9 9a ab 3e
       -0.07957345 0.4321291 -0.030625015 0.33516672
000040 df 9d 45 be 00 e1 58 3e 47 22 0b 3e 99 16 d6 bd
       -0.19298504 0.2117958 0.13587295 -0.10453529
000050 80 29 90 3e b6 c8 51 be 17 56 0b 3e 64 6f c1 3d
       0.28156662 -0.20486721 0.1360706 0.09445074
000060 59 56 ce 3e 8e d0 d3 be 45 35 91 be ee 0b f8 3c
       0.40300253 -0.41370052 -0.28360954 0.030279126
000070 f7 14 db bd 54 26 f9 be 1b 84 32 3d 61 53 cf be
       -0.10697358 -0.48662055 0.043583017 -0.404933
000080 24 d7 98 be 9d 08 24 3e f9 62 c9 be 22 d6 23 be
       -0.2985164 0.1601891 -0.39333323 -0.15999654
000090 ca ab 89 3d f6 f5 01 bd 13 ee 00 3e 1b 94 f2 3d
       0.06722219 -0.031728707 0.12590818 0.11844655
0000a0 66 2b 33 bb 6a 39 9c bd 87 87 49 3e a2 14 5d 3e
       -0.00273391 -0.07628138 0.19680606 0.21589902
0000b0 47 b1 af 3a 79 6c b2 bd 5d 7f 61 3e 4d b9 ae 3d
       0.0013404273 -0.08712096 0.22021241 0.08531437
0000c0 cc 04 8d bd 79 91 e3 be d6 f0 b9 bc 0a 98 73 bd
       -0.068856806 -0.44446924 -0.022697847 -0.059471168
0000d0 ff ad 24 3d 65 ef 09 3d 1a 9a 88 bd 2b 73 c9 be
       0.040204998 0.03367557 -0.066700175 -0.3934568
0000e0 30 0c ce 3c 4f 4b e6 3d 1c 12 97 be ee e4 3a 3e
       0.025152296 0.11244833 -0.29506004 0.18251392
0000f0 56 9a aa be c2 8c 00 3e 1f 2d a9 be e4 0e 8e 3d
       -0.33320874 0.12553695 -0.33042237 0.06936434

blocks.0.sa.proj.bias f4 [8]
000000 90 a6 f5 bd 32 8b 68 3d 2c d0 88 bd 8b 06 66 3e
       -0.1199466 0.056773372 -0.06680331 0.22463433
000010 9d b5 29 bd 8c 0a c7 be 5a 08 b1 bd d8 06 36 3e
       -0.041432966 -0.38875234 -0.08644171 0.17776048

blocks.0.ffwd.net.0.weight f4 [32, 8]
000000 19 3b 19 be 1f 7c 03 3f b0 b1 2d 3e 59 45 86 3e
       -0.1496395 0.5136127 0.16962314 0.26224783
000010 98 56 b6 bd 83 84 67 be 8d 85 d6 be 79 12 84 be
       -0.08903235 -0.22609143 -0.41898766 -0.25795344
000020 38 01 01 be c3 c7 4b 3e 66 26 17 3f 83 74 6c be
       -0.12598121 0.19900422 0.59042966 -0.2309132
000030 48 3d 6b be e0 fa ca 3e 25 45 f5 3e 35 45 28 be
       -0.22972596 0.39644527 0.47904316 -0.1643265
000040 75 39 a9 be 2e 4b 49 3e 18 c8 ce 3d 6b 88 5c 3e
       -0.3305165 0.19657585 0.100967586 0.21536414
000050 da 71 eb be ef c7 cc 3e 19 7a 3e 3e 5b 9c a9 be
       -0.459853 0.39996287 0.18601264 -0.33127102
000060 21 0e 04 3e 5d ea c6 3e a9 4e 4a bf d4 a8 67 3e
       0.12896015 0.3885068 -0.79026276 0.22622997
000070 86 19 a4 3b b6 16 8b 3e d4 e1 b2 3e 66 b2 ff 3e
       0.0050079254 0.27165765 0.34937918 0.49940795
000080 38 61 b0 bd 7b 4a 4a 3d 18 e5 d5 be c4 3f 7a bd
       -0.08612293 0.049387436 -0.41776347 -0.061095968
000090 cc 40 b7 be 0f ba ac be 2a e0 41 be 93 27 d6 3d
       -0.35791624 -0.337357 -0.18933168 0.10456767
0000a0 c5 fd 8e 3e fe d3 1c bf 7f 5a 59 3d bd f2 34 3e
       0.27927986 -0.61260974 0.05306482 0.17670722
0000b0 d6 3d 9e 3e 33 c5 67 bd 3e eb a8 3e 5d 35 14 bf
       0.30906552 -0.05658455 0.32991976 -0.57893926
0000c0 f3 8a 72 3e 62 f6 ed 3d 29 b2 24 bf cc 91 2f 3c
       0.23685817 0.116192594 -0.6433435 0.010715913
0000d0 d9 af 9f 3a 71 de ef bd ab ff e2 3d 5e ea 0e be
       0.0012183144 -0.11712349 0.11083921 -0.13956591
0000e0 ae 9f 14 bf 4c 81 46 3d b7 30 9c 3e 62 77 29 3e
       -0.5805615 0.04846315 0.30505916 0.16549447
0000f0 1f 88 11 3e dc a7 9c 3e 3a af e3 3e 28 2e cf be
       0.14212082 0.30596817 0.44469625 -0.40464902
000100 87 0a 90 be b8 73 aa bd f8 f6 c2 bc c9 e3 36 3e
       -0.28133032 -0.08322853 -0.023799405 0.1786033
000110 fc 12 81 be 67 fe 03 3f 6f 44 9d be a3 49 5c be
       -0.25209796 0.5156006 -0.30716273 -0.21512465
000120 e6 dd a1 3e 6f 55 07 3e 95 29 f4 bd 58 d6 25 be
       0.31614608 0.13216184 -0.11921994 -0.16195047
000130 b7 b4 67 bd df bf 0c bf 7a 2e e1 bd 84 94 a2 3e
       -0.056568827 -0.5498027 -0.10995193 0.31753933
000140 7c dd 9e be 78 ff fc 3e 8e c1 22 be 34 d8 a7 3e
       -0.31028354 0.49413657 -0.15894148 0.32782137
000150 a2 3d fc be 3f 4d af be ce 3c d8 3d 6d a4 8c bd
       -0.49265772 -0.34238622 0.105584726 -0.06867299
000160 05 03 57 bd a7 7e 55 be ea 9e 20 be 9a ed c9 3d
       -0.052493114 -0.20849095 -0.15685621 0.09859772
000170 d4 7c 27 3f 81 2a c0 be f0 d6 24 bf 33 56 21 be
       0.6542485 -0.37532428 -0.6439047 -0.15755539
000180 8a 17 91 be 0b 4d e3 3d 4e f8 22 bf 5c 12 00 bd
       -0.2833827 0.11098679 -0.6366013 -0.03126751
000190 99 83 ba be a4 91 60 bd 98 8c 1c 3e 18 27 06 3f
       -0.36428526 -0.054826394 0.15288007 0.524034
0001a0 f8 88 8c 3e be 6b a3 3d 8b b7 12 3f f4 62 27 3e
       0.2744825 0.079795346 0.57311314 0.16346341
0001b0 1a 56 f7 3d fd 50 57 3e 58 eb 11 bd 9b d1 aa be
       0.120769694 0.21026988 -0.035624832 -0.3336304
0001c0 58 23 68 bc 40 e9 04 bf d6 63 b4 3e 6c 17 b8 3e
       -0.014168583 -0.5191841 0.3523242 0.3595537
0001d0 e3 6e 4d 3e 35 68 15 3e 50 56 ea bd 37 7b ac 3d
       0.20061831 0.14590533 -0.11442244 0.08421939
0001e0 15 e2 8f 3e 1f a3 15 3d 8b 30 33 3c 5f 1b 48 3d
       0.28102174 0.036532518 0.0109368665 0.048854228
0001f0 be 4a 0b 3f 5f d9 56 bd ec c3 a9 be af df a8 be
       0.5441092 -0.052453395 -0.3315729 -0.32983157
000200 a5 ca 6f bd e9 5b e7 3d 06 4d 67 3c 62 af be bb
       -0.058542866 0.11296827 0.014117485 -0.005819247
000210 c9 cb 0f 3f a1 ad 81 be a9 9a 61 be 0a 59 be bd
       0.56170326 -0.2532778 -0.22031654 -0.092943266
000220 ed 4b 30 be 17 a8 40 3e 5c e9 38 bf 23 28 af 3d
       -0.17216463 0.18814121 -0.7223108 0.08552577
000230 92 2f a1 bd 15 07 5c be 61 3b 36 be 02 8a a9 3e
       -0.078704014 -0.21487077 -0.17796089 0.33113104
000240 b6 7d 10 3e a6 77 c8 3e 4d 43 b3 be ec b3 8c bd
       0.14110455 0.39153785 -0.35012284 -0.06870255
000250 bd 1c fe bc 47 e8 5d 3d 23 75 1d bf 02 17 9f bd
       -0.031019563 0.054176595 -0.6150686 -0.0776806
000260 99 d6 7a 3d 59 5b f9 be 7e d4 0b bf 87 60 cf be
       0.061239813 -0.48702505 -0.5462111 -0.40503332
000270 de 86 4f be 52 10 a8 3e aa d6 03 3e c9 7a 91 3e
       -0.20266291 0.3282495 0.12874857 0.2841399
000280 6c 7c 82 be ab 2c b5 bd 24 2c 0a bf c5 4a 85 be
       -0.2548555 -0.0884641 -0.53973603 -0.26033607
000290 e6 24 d2 3e cd b2 d4 bd 68 d9 1e be b7 63 b5 3e
       0.41043776 -0.10385666 -0.15512621 0.3542764
0002a0 4f 5c 30 be 1c 1a 13 bc b0 f0 25 be c0 72 63 be
       -0.17222713 -0.008978393 -0.16205096 -0.22211742
0002b0 06 6a 1f bf 0e 9a e4 3e f5 cb 92 bd 60 cf bb 3e
       -0.62271154 0.44648784 -0.07167808 0.36681652
0002c0 9b 24 d7 bd 11 20 9f 3e 03 ed 02 be 49 7e 4a be
       -0.10505029 0.31079152 -0.12785725 -0.19774736
0002d0 97 13 8e be 34 15 9b 3d 06 99 25 be d7 03 0b 3f
       -0.2774932 0.075724036 -0.16171655 0.54302734
0002e0 65 c8 63 3d f4 b4 50 bd 13 97 3d bf a0 b5 a5 3e
       0.055611033 -0.05095382 -0.74058646 0.3236513
0002f0 96 25 25 3f 8b 04 ad 3d 2e db 4c be 86 74 3e be
       0.64510477 0.08448132 -0.20005485 -0.18599138
000300 4b 91 7e be d7 13 fe bb 89 f2 cb be fa 8a 79 be
       -0.24860112 -0.00775383 -0.39833477 -0.24369422
000310 39 2f 25 bb db 00 db 3d 05 0d 2e be dc 43 f0 3e
       -0.002520515 0.106935225 -0.16997154 0.46926773
000320 e9 47 56 3e 16 17 0f 3f ed 94 bb be cd ee b1 3e
       0.20925869 0.558946 -0.3663706 0.34752503
000330 5f b5 f0 be 3a ea 3e be 43 b8 e1 3e f2 65 6c 3d
       -0.47013375 -0.18644038 0.44085893 0.05771441
000340 16 1b b8 be 44 d2 c7 be cf 23 f7 3e 2e af 1f 3e
       -0.35958165 -0.39027607 0.48269507 0.1559417
000350 24 99 e5 bd c1 51 93 be a0 8d c9 3e b1 96 83 3d
       -0.1121085 -0.2877331 0.39365864 0.064252265
000360 86 fb 0b bf e6 35 df 3e 2e f0 b3 be 5a e0 ff be
       -0.5468067 0.4359581 -0.3514418 -0.49975854
000370 1e ec de 3d f0 db b8 3e 43 47 c5 bc 3f 8a 24 be
       0.108848795 0.361053 -0.024081832 -0.16068362
000380 dc c6 42 3e 9a 20 a8 3e ae 09 e3 3e ac c3 26 3f
       0.19021171 0.32837373 0.44343323 0.6514232
000390 ff 8b 93 3c 03 9c d5 be 27 8a b8 bd 29 78 b0 be
       0.018011091 -0.4172059 -0.090107255 -0.34466675
0003a0 cd 40 f1 bd 4f d9 3b 3f 4a 27 5b 3e 5c 68 18 3e
       -0.11779938 0.7337846 0.21401706 0.1488356
0003b0 36 85 b0 be cf 8b ac be e6 9c 49 be ea 19 17 be
       -0.34476632 -0.33700415 -0.19688758 -0.14755979
0003c0 40 5b 29 3e 91 4d 94 3d a7 7d c5 3e fd f7 54 3e
       0.16538715 0.07241357 0.38572428 0.20797725
0003d0 e9 28 09 be 39 f4 60 3e e3 84 b2 bd 23 65 b9 be
       -0.13394512 0.21968164 -0.087167524 -0.36209974
0003e0 86 8b 27 be a5 af 2f 3f 60 d3 87 3c e1 4b d6 3e
       -0.16361818 0.6862739 0.016580284 0.41854766
0003f0 09 60 49 bd 51 f9 86 be 78 a3 b5 3d ff ba a5 be
       -0.049163852 -0.26362088 0.0886907 -0.3236923

blocks.0.ffwd.net.0.bias f4 [32]
000000 52 3d 61 be c8 a7 c1 bd 51 bd c4 3e e4 96 d9 3e
       -0.21996048 -0.0945583 0.38425687 0.42497933
000010 af be 66 3e 42 64 6d 3e e2 37 c8 3d 7f 8e 3c be
       0.22533678 0.23182777 0.09776284 -0.18413733
000020 52 26 be 3e e7 25 c7 3e c0 83 1e 3d 8d d9 ec 3c
       0.3713861 0.38896105 0.038699865 0.02891233
000030 b2 92 ae 3d f6 ad 51 3e e6 d6 04 3e 8f 3a af 3e
       0.08524074 0.20476517 0.12972602 0.34224364
000040 55 00 d4 3c 59 7f 74 3e 24 36 7c be c6 9c 21 3e
       0.025879065 0.23876704 -0.24630028 0.1578246
000050 fe 4e da bb c3 fa 6a 3e 65 37 0d 3f 1c 77 04 3e
       -0.0066622486 0.2294722 0.5516265 0.12936062
000060 df 86 4d 3d 31 eb 4f be af cf 07 bd 28 75 87 3d
       0.05017745 -0.20304562 -0.033157047 0.06614143
000070 98 51 4d 3d 0b 1e e5 3d 7c 32 a1 3e c3 8b 8e bd
       0.050126642 0.11187371 0.3148383 -0.06960251

blocks.0.ffwd.net.2.weight f4 [8, 32]
000000 3e 0e cf be 7a d3 58 bd 88 08 11 3e db 1f bb be
       -0.40440553 -0.052936055 0.1416341 -0.3654774
000010 c7 ac 9b be b0 41 49 be 8f 75 88 be e7 21 f9 3e
       -0.30405256 -0.19653964 -0.2665219 0.48658678
000020 06 41 81 3e 9f 1b 1e 3e a4 7b 78 be 64 c6 5a 3e
       0.2524492 0.15440224 -0.24265915 0.21364743
000030 ed 1d e6 be b7 70 88 be 3c 88 82 3e 23 4f f0 3c
       -0.44944707 -0.26648495 0.25494564 0.02933461
000040 c5 c9 58 3e 7c 2d 9d bd 7d 1a a4 be cf 24 91 be
       0.21170719 -0.07674691 -0.3205146 -0.28348395
000050 dc af ca 3d 94 c7 27 3e b0 b0 d6 bd 20 52 9e 3e
       0.09896824 0.16384727 -0.10482919 0.3092203
000060 d7 7b e5 bd b3 f2 56 be ae c9 f9 3d 4f 90 c4 3e
       -0.11205261 -0.2099102 0.121966705 0.3839135
000070 d4 ac fb be aa e6 75 be ee 7a 01 be 0b 8e be bd
       -0.49155295 -0.24013773 -0.1264455 -0.09304436
000080 15 98 1f 3e 62 73 8c 3e d8 8f 35 3e 80 a7 07 bf
       0.15585358 0.2743178 0.17730653 -0.5298996
000090 9b fb 7b be b1 f8 d3 3d 3c db 92 bd d3 d2 9d bd
       -0.24607699 0.103501685 -0.07170722 -0.07706227
0000a0 08 46 3d be 9c fa 4c 3e b6 b4 71 bd 7c eb fd bd
       -0.18483746 0.20017475 -0.05901023 -0.12398431
0000b0 0b 2b 6b be c7 67 0b 3d 5b 7f 17 3e 29 d6 45 be
       -0.22965638 0.034034517 0.14794676 -0.19319977
0000c0 6f 04 15 bd e0 01 6a be 57 99 9c be 12 52 85 be
       -0.03638118 -0.22852278 -0.3058574 -0.26039177
0000d0 dc 03 0a 3e 17 0c 35 be 44 e7 49 3d bc 51 2e 3e
       0.13478035 -0.17680393 0.049292818 0.17023367
0000e0 82 cf 9e bc a3 9e f2 bd 46 ea 78 3e 04 44 f0 bd
       -0.019386057 -0.11846664 0.24308118 -0.11731723
0000f0 3b 77 9c 3e 19 7c 1f 3e 89 74 d4 3d c6 b4 fc 3d
       0.30559716 0.15574683 0.1037379 0.12339167
000100 25 bf d3 3b 78 50 c8 3d bd 17 30 be 99 5b 50 3d
       0.006461995 0.09780973 -0.17196555 0.050868604
000110 d5 3b 19 be b5 29 5a be 41 6a cd 3d 7b ab 42 3e
       -0.1496423 -0.21304972 0.10030032 0.19010727
000120 90 4f 9b 3d 35 0e 58 be e0 72 b0 be d2 cd 0d 3e
       0.07583535 -0.2109917 -0.34462643 0.13848045
000130 41 72 aa 3d 51 1b 8d 3e ef 5f 4e 3e a9 ee 3d 3b
       0.083225735 0.27559903 0.20153783 0.0028981364
000140 ab 97 09 bd 92 a1 44 3e 6a 5a ae be 72 78 2f be
       -0.033591907 0.19202259 -0.34053355 -0.1713579
000150 54 d1 79 bd da 4d 83 be f0 1c 2d be af 8c 7d be
       -0.060990646 -0.25645334 -0.1690557 -0.24760698
000160 fa ab 66 be 0b 07 76 bc 75 59 d2 bc 21 26 ff bd
       -0.22526541 -0.015016328 -0.025677422 -0.124584444
000170 8f 87 ae 3c 10 1c ab bd 98 30 0b 3d 72 15 a7 be
       0.021304874 -0.08354962 0.03398189 -0.3263355
000180 ae 64 84 be f2 60 09 3e 45 ea 9f bd 30 d3 ae 3e
       -0.25858063 0.13415888 -0.07808355 0.34145498
000190 b1 49 76 3e a8 d0 ca be 4a 0d c8 3e c6 6e 09 be
       0.24051549 -0.39612317 0.3907264 -0.13421163
0001a0 82 5d c6 3d ae ad 4f 3e 4d 42 6a 3e 51 0d f8 bc
       0.09685804 0.20281097 0.22876854 -0.030279787
0001b0 00 9f b1 3e a2 4b cf 3a 33 2d 89 be 39 8c 1e 3e
       0.3469162 0.0015815387 -0.26792297 0.15483178
0001c0 78 7e e3 3b dc fe 95 3e 1d 5e 20 3e 94 80 13 3c
       0.0069425665 0.29296005 0.15660901 0.009002823
0001d0 af 28 3d 3e be 0b 81 3e 22 01 55 3e 42 d3 d4 3d
       0.18472551 0.2520427 0.20801213 0.10391857
0001e0 dd 12 bc 3d b1 6d bd 3e 89 08 58 bd 0b 41 96 3e
       0.091832854 0.3699775 -0.052742515 0.293465
0001f0 ba 30 96 be 73 a2 8b 3c c9 fb a7 bd fd 08 47 be
       -0.2933405 0.017045235 -0.08202321 -0.19437023
000200 bc b6 00 3e 9a 26 e5 be 51 bf 27 be 4e a9 42 be
       0.12569708 -0.44756013 -0.16381575 -0.19009897
000210 94 9a 81 bd 5a 4c c9 3e 58 d3 5c be f0 86 d5 bd
       -0.063283116 0.39316064 -0.21564996 -0.10426128
000220 8e 64 e2 3c 02 97 37 3e 31 6d 98 3e 2e c7 c4 3d
       0.027635839 0.17928699 0.29770806 0.09608303
000230 5f 63 b7 be 80 ee a4 3d 33 3c a9 bd 3b 47 97 3e
       -0.35818002 0.08053303 -0.08263435 0.29546532
000240 83 bb 97 3e 3e 04 ff be 37 45 25 bb 6f a9 92 3c
       0.29635248 -0.49807924 -0.0025218257 0.017903058
000250 33 bd ec bd 41 7a 7d be 2b b4 ba bd a1 b8 d3 bc
       -0.115595244 -0.24753667 -0.091163956 -0.025844874
000260 3c e5 2c be f1 b4 d3 3e 72 67 9f bd 83 19 3c 3e
       -0.16884321 0.41348985 -0.077834025 0.18369107
000270 97 d5 a2 3e 70 61 fa bd 50 ef 06 be 91 f0 56 3e
       0.3180358 -0.12225616 -0.13177228 0.20990206
000280 71 85 01 3f 86 1b 41 bd 1e db b9 be 12 cc 71 bd
       0.5059424 -0.04714539 -0.36299986 -0.059032507
000290 25 a8 6d 3e bf b9 0f 3e 86 8e 4a be ab 4a 20 bd
       0.23208673 0.140357 -0.19780931 -0.03913371
0002a0 55 ea 88 be f0 aa d4 be a6 01 25 3e d8 79 dc be
       -0.2674128 -0.41536665 0.1611391 -0.4306171
0002b0 05 b9 28 bd d4 a8 ad bd 8b fc 8e 3e 3a 9d 80 be
       -0.041192073 -0.08479467 0.2792705 -0.25119954
0002c0 85 e2 31 be 56 c8 c6 bc 49 33 a5 3e 83 be 1d 3f
       -0.17371567 -0.02426545 0.3226569 0.6161882
0002d0 f5 2f b5 be 31 7e d5 be ba 73 ca 3c 78 06 bd be
       -0.3538815 -0.4169784 0.024713386 -0.36918998
0002e0 77 45 43 3d 16 bb b2 3d 0b 18 88 3e 23 e9 9e bd
       0.04767367 0.0872709 0.26580843 -0.07759311
0002f0 ca 1f 1b 3e dd 77 c5 3e fc 9b af 3d 7f ca 99 3e
       0.15148845 0.3856801 0.085746735 0.30037305
000300 2c 71 f7 bd 7e ba 2e 3e 48 da 68 3e e5 a6 c1 3e
       -0.12082133 0.17063329 0.22739518 0.37822643
000310 06 aa 9f bc 7f 07 29 3e ad 6e 2c 3e ac b5 80 3d
       -0.019490253 0.16506766 0.16839094 0.06284651
000320 1f ae 4c bd 30 da 23 bd 3b ea 10 3e 6f b7 52 3e
       -0.049970742 -0.040003 0.14151852 0.20577787
000330 ed 21 42 3e 8b c5 64 be 5e fd 95 be 9a b4 05 bd
       0.18958254 -0.22340982 -0.29294866 -0.03264294
000340 7f 7e 97 3d a9 e5 b2 3e 8d 0c 23 3e 1c 5d 44 3d
       0.07397174 0.34940842 0.15922756 0.04794036
000350 14 8a 03 3e a2 74 5f 3e c5 b1 36 3e ec 93 9e 3e
       0.12845641 0.21821836 0.17841251 0.3097223
000360 25 a5 c4 3e 90 55 52 3e a4 bf 7b be 92 82 06 be
       0.38407245 0.20540452 -0.24584824 -0.13135746
000370 41 f6 9b be 73 b2 3f bd e6 ba 23 be bc 0b c0 bc
       -0.30461314 -0.04680104 -0.15989265 -0.023443095
000380 fa ed 10 be 44 0f 50 bd 81 20 d5 3c 75 65 99 be
       -0.14153281 -0.05079581 0.026016476 -0.29960218
000390 5f 88 08 be cb 61 6e bd 78 61 67 bb 06 11 2b 3e
       -0.13333271 -0.05819873 -0.0035305899 0.16705713
0003a0 78 bf 6b 3e c2 0a cf 3d 79 51 7a be f0 88 1e be
       0.23022258 0.10109474 -0.24445142 -0.15481925
0003b0 1f aa 5f be 02 2b 4a 3e 2d 17 65 3e a3 89 91 3e
       -0.2184224 0.19742969 0.22372122 0.2842532
0003c0 cd 3a 17 bd 19 92 73 be 51 2b aa be 54 85 30 be
       -0.03692131 -0.237862 -0.33236173 -0.1723836
0003d0 bc 52 08 bd e5 64 06 3d 16 e7 5d be 14 ef ad 3d
       -0.033282027 0.032811064 -0.21670184 0.08492866
0003e0 18 04 8a be f3 c9 e3 bd 7c 1a 4c be 25 55 fb 3c
       -0.26956248 -0.11122503 -0.19931978 0.030680249
0003f0 3c 59 b9 bd 8e b2 2e 3e 77 f8 9d 3e 53 65 22 bd
       -0.09050223 0.170603 0.30853626 -0.03964741

blocks.0.ffwd.net.2.bias f4 [8]
000000 da 5d 8e bd 2a 54 4e 3d fb d8 3f be 03 f2 27 3e
       -0.069514945 0.050373234 -0.18735115 0.16400914
000010 95 72 dd 3d 58 46 36 be 43 d5 ef bd 44 67 a3 bd
       0.108128704 -0.17800272 -0.11710598 -0.07978681

blocks.0.ln1.weight f4 [8]
000000 3b 4d 5d 3f 08 58 85 3f 92 de 9c 3f 82 17 92 3f
       0.8644597 1.041749 1.2255423 1.1413424
000010 19 07 91 3f 91 77 75 3f 25 19 87 3f f5 ba 99 3f
       1.1330291 0.9588557 1.0554549 1.201018

blocks.0.ln1.bias f4 [8]
000000 c0 47 8e bd c5 10 16 be 82 17 42 be 49 3e 33 bd
       -0.06947279 -0.14654835 -0.1895428 -0.04376057
000010 4a 00 47 be 7b b3 5d 3e da db 29 be 9d eb eb 3d
       -0.19433704 0.21650498 -0.16587773 0.11519549

blocks.0.ln2.weight f4 [8]
000000 7f a9 8e 3f fc 85 bb 3f 7e 34 ad 3f ca cd 99 3f
       1.1145476 1.4650264 1.3531644 1.2015927
000010 4f 90 a9 3f 39 9e 9c 3f a3 d4 aa 3f 60 78 a3 3f
       1.3247164 1.2235786 1.3346142 1.277111

blocks.0.ln2.bias f4 [8]
000000 be a4 b0 bd c9 9a 40 be 2a 85 a7 bb c8 87 19 3e
       -0.08625172 -0.18809046 -0.00511231 0.14993203
000010 43 82 e6 3d 62 89 4a 3c 98 9a 82 bd 14 84 13 3e
       0.11255314 0.012361856 -0.06377143 0.14405853

ln_f.weight f4 [8]
000000 d3 62 c4 3f 79 2b cb 3f 6a 28 d8 3f 8d 25 c5 3f
       1.5342659 1.5872642 1.6887333 1.5402085
000010 8e 39 db 3f 56 df dc 3f 3d d2 dd 3f 77 c5 9c 3f
       1.7126939 1.7255657 1.7329785 1.2247761

ln_f.bias f4 [8]
000000 da c4 27 be 63 26 2a be 4c b7 4f be bf 17 d3 3d
       -0.16383687 -0.16616206 -0.20284766 0.103072636
000010 3a f7 af bd 80 6a 96 be a2 f8 66 bd 11 b6 98 bb
       -0.085920766 -0.29378128 -0.05638946 -0.004660376

lm_head.weight f4 [10, 8]
000000 5b 57 e7 be 75 5b 06 bf b7 48 0c bf 4f 98 43 3f
       -0.45183834 -0.524833 -0.54798454 0.7640428
000010 a2 83 03 bf 2f 2c 01 3b 02 18 43 3f 03 9c 66 be
       -0.5137273 0.0019710173 0.7620851 -0.22520451
000020 52 2f 61 bd f3 7e af 3b c9 61 56 3f 77 95 40 be
       -0.05497677 0.0053557097 0.8374296 -0.18807016
000030 c9 cd 11 3f 1d 82 92 3c b2 6f 14 bf 2a 84 0c 3f
       0.5695463 0.017884308 -0.57982934 0.54889166
000040 10 d8 cf bd 80 0e 26 3f 59 54 08 3f 9c bf fe bd
       -0.101486325 0.64865875 0.53253704 -0.1243889
000050 e2 46 6c bf 56 2f 37 3e 15 8e c7 be e0 15 35 3f
       -0.9229566 0.17889151 -0.38975587 0.70736504
000060 69 99 e7 3e d8 31 0f 3f 9e d9 ea 3e 01 a3 1f bf
       0.4523423 0.5593543 0.45869154 -0.623581
000070 4a 97 4d bf 39 c6 99 3e 33 16 58 3f e7 7d f4 be
       -0.80308974 0.30034044 0.84408873 -0.47752306
000080 96 08 77 3e 61 d8 4f be 3e 9a 1f 3e 73 37 3f bf
       0.24124369 -0.20297386 0.15586182 -0.74693984
000090 36 d5 d5 3e 2c c3 67 3f 07 1b 31 3f 4f 11 11 bd
       0.4176423 0.90532184 0.69181865 -0.035416897
0000a0 7f be 4b bf de 90 3d 3f f2 a4 27 bf fb 4b 42 bd
       -0.7958755 0.74049175 -0.6548606 -0.047435742
0000b0 2d 3e fd 3d da 98 1f 3f 86 3f e3 bd 85 a0 87 be
       0.12365375 0.6234261 -0.110961005 -0.26489654
0000c0 3c 85 47 3f 2e aa 1c bf ae 06 0b bf d0 bc 93 3e
       0.77937675 -0.61197174 -0.5430707 0.2885499
0000d0 23 92 07 bf e4 55 a5 3e 35 13 fa be bc 55 ff 3e
       -0.5295736 0.32292092 -0.4884278 0.49870098
0000e0 ca 84 96 3e 5e db 45 be 71 36 3c be 37 ec 10 bd
       0.29398185 -0.19321963 -0.18380143 -0.035381522
0000f0 b7 a6 f2 3e 38 94 12 bf 12 85 99 3e 57 2e e1 bd
       0.47392818 -0.57257414 0.29984337 -0.10995167
000100 60 77 eb 3c 95 6b b1 be 23 0b 1c bf 81 9b fd be
       0.028743446 -0.3465239 -0.60954493 -0.49532703
000110 7f 42 7d 3e a1 1e 3f bf d6 eb db 3d eb 2f 81 3d
       0.24732397 -0.7465611 0.107383415 0.06307968
000120 e9 43 a3 3e 98 72 74 bc f4 e3 8e be bc b3 46 be
       0.3188775 -0.014919899 -0.2790829 -0.194045
000130 82 4d 0a 3f 69 49 0b bf 3e 86 b4 3e 3e 80 54 3c
       0.5402452 -0.5440889 0.3525867 0.012970028

lm_head.bias f4 [10]
000000 b0 b5 ed 3e eb 9e 28 be 47 f8 d4 3c 06 e3 30 be
       0.4642768 -0.16466872 0.025997294 -0.17274103
000010 7c c4 30 3e ce cc 29 3d 95 6f 8c be 79 8a eb bc
       0.17262453 0.041455083 -0.2742888 -0.028752552
000020 5d ee 9c 3d 99 38 b5 bd
       0.07662652 -0.08848686
